original dir:  /home/wangdx_lab/cse11911612/SUSTech-Coded-Computation/src
Data is ready!
当前任务为 IMAGENET10
当前模型为 VGG16
K: 4
R: 2
N: 6
data_shape: (3, 224, 224)
num_classes: 10
conv_output_size: (512, 6, 6)
fc_input_size: 18432
模型总大小为：130.158MB
base_model_path: ./base_model/VGG16/IMAGENET10/model.pth
模型总大小为：130.158MB
Sequential(
  (0): Conv2d(3, 64, kernel_size=(3, 3), stride=(1, 1), padding=(1, 1))
  (1): ReLU()
  (2): Conv2d(64, 64, kernel_size=(3, 3), stride=(1, 1), padding=(1, 1))
  (3): ReLU()
)
Sequential(
  (0): Conv2d(64, 128, kernel_size=(3, 3), stride=(1, 1), padding=(1, 1))
  (1): ReLU()
  (2): Conv2d(128, 128, kernel_size=(3, 3), stride=(1, 1), padding=(1, 1))
  (3): ReLU()
)
Sequential(
  (0): Conv2d(128, 256, kernel_size=(3, 3), stride=(1, 1), padding=(1, 1))
  (1): ReLU()
  (2): Conv2d(256, 256, kernel_size=(3, 3), stride=(1, 1), padding=(1, 1))
  (3): ReLU()
  (4): Conv2d(256, 256, kernel_size=(3, 3), stride=(1, 1), padding=(1, 1))
  (5): ReLU()
)
Sequential(
  (0): Conv2d(256, 512, kernel_size=(3, 3), stride=(1, 1), padding=(1, 1))
  (1): ReLU()
  (2): Conv2d(512, 512, kernel_size=(3, 3), stride=(1, 1), padding=(1, 1))
  (3): ReLU()
  (4): Conv2d(512, 512, kernel_size=(3, 3), stride=(1, 1), padding=(1, 1))
  (5): ReLU()
)
Sequential(
  (0): Conv2d(512, 512, kernel_size=(3, 3), stride=(1, 1), padding=(1, 1))
  (1): ReLU()
  (2): Conv2d(512, 512, kernel_size=(3, 3), stride=(1, 1), padding=(1, 1))
  (3): ReLU()
  (4): Conv2d(512, 512, kernel_size=(3, 3), stride=(1, 1))
  (5): ReLU()
)
Model is ready!
tensor([[-0.4926, -0.0524,  0.9423, -1.9616, -1.7078, -1.2097,  1.3402, -0.6424,
         -1.5461,  3.9894]], device='cuda:0')
Initial x shape: torch.Size([1, 3, 224, 224])
After conv_segment1, z shape: torch.Size([1, 64, 224, 224])
After maxpool_segment1, z shape: torch.Size([1, 64, 112, 112])
After conv_segment1, z shape: torch.Size([1, 128, 112, 112])
…
